example-fl-crate/quickstart-pytorch/final_model.pt (torch, 251845 bytes, 10 tensors)

conv1.weight f4 [6, 3, 5, 5]
00000000: 4548 dbbc b740 08be c738 2abd 2e44 2bbe
00000010: bda2 8fbd 663f 54bd 5d9f bebd a833 883d
00000020: c91b 42bd 40d0 313d 59c5 cbba f966 ca3b
00000030: 295b f8bd 256a cdbd 1930 1abd dcde e1bd
00000040: dca2 83bd 77c0 b03b ac2c 963d 0e43 0fbe
00000050: 3a43 813d 9493 493b 27a2 b03b 1186 e8bd
00000060: deb3 333d bfc0 4dbd e22b e4bd 3f8a b0bd
00000070: 9e33 83bb 061d e2bd 2520 8d3c d9ba 1abd
00000080: 96a4 c6bd 06e3 fb3c d50d a4bd 1736 b1bb
00000090: c2a1 80bd 5629 f4bd ebad 0c3d 3ede 04be
000000a0: 6e7d 4a3d 4adb a1bb 61f9 dabd 7005 6fbc
000000b0: 3bed a03d 8417 9cbd b180 173d fad8 863d
000000c0: efb1 2e3d 24e9 c23c e624 c33c b785 f13d
000000d0: 713b e93d 6343 963d 9e99 4bbb 7b99 443c
000000e0: e6ad 803c 90e1 cc3c 6610 883d 4016 e0bc
000000f0: 8d86 b03d 63fa 1ebb f6c0 233d 8772 bebc
00000100: 9f9d 15bd 2ec8 173e 422a 173e 6193 123e
00000110: e922 0d3d 7f13 dc3d 968b 893d 83a8 f33d
00000120: 6e37 683d de54 9f3d d85a 053e 04ae a03d
00000130: c427 4b3e 2c31 8a3b be11 983d 2234 993d
00000140: a8a8 723e 0c48 813e 63eb bc3d fbd1 533e
00000150: 440d 453d b4fd 33be 2c9f f1bd ec47 dbbd
00000160: 43b6 7fbe e4c8 55be 3fa7 54be 7a58 98bb
00000170: d52a 42bd 8875 5dbc 727d 50be 0934 583c
00000180: 4d41 1a3e 00d9 4cbb 0c81 d53d 215c cdbd
00000190: d528 c03d b836 f1bb e6d4 9b3d e533 c53c
000001a0: f68e 083d 1cfa 083e d2b1 a63d 8149 663d
000001b0: 29a5 273e 0f3c d13d 5442 7abe 5960 92be
000001c0: 9013 a8be fc26 04be 3df4 84be 48d8 40be
000001d0: 7749 48be 9ff7 a4bd 5ec4 73be 4876 b7bd
000001e0: 6cc7 333d 39e3 e13c e055 aabd 76f7 32bb
000001f0: 70e7 d6bd 5377 5f3e 7134 353e 5ea3 2d3e
00000200: e84d 713d 3856 783e f679 133e fbac 403e
00000210: ae28 803e 7cfd 803e 5d89 d03d a6ad 03be
00000220: 6a78 75be 3a6f 39be 4608 e7bd 3159 0dbe
00000230: 6e85 a93c c256 8b3b 8c1e dc3b a02b f3ba
00000240: 5e78 3a3d e4de f43d 60f2 d2b9 4c3e 203d
00000250: c26b a73d db47 ec3d 7ce4 633e ba12 853e
00000260: 0785 e73d 62b7 89bc 1e51 c63d 2d25 ff3d
00000270: e203 683e 0e74 5b3e c330 803d b60d b23c
00000280: 7efe bd3d af53 b83d a5d7 de3d d381 23be
00000290: de11 49be 9731 1e3e c5ca 213e b103 fcbc
000002a0: 3a1c 09be 927b 6cbd 2013 2c3e 29a3 8f3c
000002b0: ea97 4bbe 1504 85be 5f0b 28be 863e 0a3e
000002c0: 50aa 223e b5f7 083e bbba 31be 1211 01be
000002d0: 510e 143e bcec 8f3e afcc 5d3e e88d eebd
000002e0: fdd0 28be abc5 473e 5c5e 153e c179 693e
000002f0: 58b4 c63d b9d1 52bd 9c7c a13e 6209 913e
00000300: f018 6b3e a47b 143e 90ae 613d dee9 d33e
00000310: dcba 3c3e 1ccd 483e b875 e63b 0fcd e13d
00000320: 188b e2be 32ac c6be 55f8 ddbe 9809 0dbf
00000330: e558 2bbf b4ad abbe 95d3 62be 7e14 87be
00000340: 2e86 d9be e7a6 22bf 469c 5dbe f9a5 d7bd
00000350: da2f a8be 3639 c6be 91f2 15bf 4b4d cfbd
00000360: 1cae 63be ea3f debe 403b 16bf 9bb8 01bf
00000370: ea46 c6bd 4fe4 2cbe 1fd2 f5be 16f7 02bf
00000380: 07a4 e5be de1c 8a3d 0c11 013e 8e95 ce3d
00000390: 3db6 0a3d be17 353d 627e 40be a045 c9be
000003a0: f834 b3be 84b1 9cbe 00e0 45be 25a6 b5bd
000003b0: 6d7e 14be 2185 d2bd 7e31 a7bd e8c0 55be
000003c0: 0dcd 9abc 2d7f ce3d 10c9 053e 4e79 ea3d
000003d0: 2395 ea3c 7887 90be fc9b bbbe a060 4fbe
000003e0: e89b 63be c805 7dbe 3373 8a3e f093 3e3e
000003f0: 7a85 923d 62fd 163e 609e 3a3e dff3 72be
-0.02676786 -0.13305937 -0.041558053 -0.16725227 -0.07013462 -0.051818274 -0.0930774 0.06650478
-0.04738978 0.043411493 -0.0015546485 0.006176826 -0.121267624 -0.10030011 -0.037643526 -0.11028835
-0.06427547 0.0053940373 0.07332739 -0.13990423 0.063116506 0.003075813 0.005390424 -0.11353696
0.043872707 -0.050232645 -0.111411825 -0.08620118 -0.004003956 -0.11040692 0.017227242 -0.037775848
-0.09699361 0.030747902 -0.08010451 -0.0054080593 -0.06280853 -0.11921947 0.03434555 -0.12975404
0.049436025 -0.0049394714 -0.106920965 -0.014588699 0.07857748 -0.07621673 0.036987964 0.06584354
0.04265016 0.02379281 0.023821305 0.11793082 0.11388291 0.07337072 -0.0031066905 0.011999483
0.015707921 0.0250099 0.06643753 -0.02735436 0.086194135 -0.0024258129 0.039978944 -0.02324797
-0.036527272 0.14822456 0.14762214 0.14314033 0.03445712 0.10745906 0.06716077 0.118973754
0.056693487 0.07779859 0.13022935 0.07845691 0.19839388 0.0042172875 0.07425259 0.07480647
0.2369715 0.2525028 0.09224584 0.2068557 0.048108354 -0.17577249 -0.11797938 -0.107070774
-0.24971871 -0.20877415 -0.20766924 -0.004649219 -0.04740413 -0.013516791 -0.20360354 0.013196
0.15063973 -0.0031257272 0.10425004 -0.10027338 0.09382788 -0.0073612593 0.076089665 0.024072597
0.033339463 0.13376659 0.08139385 0.056222443 0.16371597 0.102165334 -0.24439365 -0.28589132
-0.32827425 -0.12905496 -0.2596759 -0.18832505 -0.19559275 -0.080550425 -0.23805377 -0.08958107
0.043891355 0.027574169 -0.083171606 -0.0027308143 -0.10493362 0.21822862 0.17695786 0.16956851
0.058912188 0.2425164 0.14401993 0.18815987 0.25031036 0.25193393 0.1018245 -0.1285921
-0.23971716 -0.18108836 -0.11280875 -0.13803555 0.020693507 0.0042522857 0.0067175087 -0.001855243
0.045524947 0.119565755 -0.00040234905 0.03912191 0.0817485 0.11537143 0.22255129 0.2599085
0.1130467 -0.016811077 0.096834406 0.124582626 0.22657731 0.2143099 0.062593006 0.021735054
0.09277056 0.090003364 0.10880975 -0.15967493 -0.19635722 0.15448605 0.15800007 -0.030763479
-0.13389674 -0.057735033 0.1680417 0.017533856 -0.1988217 -0.25979677 -0.16410588 0.13500413
0.15885282 0.13375743 -0.17356388 -0.12604168 0.14458586 0.28110301 0.21660112 -0.1164816
-0.16485973 0.19508998 0.14586776 0.22800352 0.097023666 -0.05146954 0.31540382 0.2832747
0.22958732 0.1450029 0.055098116 0.41389364 0.18430656 0.19609493 0.007033076 0.1102544
-0.44246745 -0.3880325 -0.43353525 -0.55092764 -0.6693252 -0.33530962 -0.22151025 -0.26382822
-0.42485183 -0.6353592 -0.21641645 -0.10529704 -0.32849008 -0.38715523 -0.5857325 -0.10122164
-0.22234386 -0.43408138 -0.5868416 -0.5067231 -0.096814945 -0.16883968 -0.48011872 -0.51158273
-0.44851705 0.06743787 0.12604159 0.10087119 0.033865202 0.044212095 -0.18798211 -0.39310932
-0.3500135 -0.30604184 -0.1932373 -0.0886958 -0.14501353 -0.102792986 -0.08163737 -0.20874369
-0.018896604 0.100828506 0.1306498 0.11448918 0.028635567 -0.28228354 -0.36642444 -0.20251703
-0.22227442 -0.24709237 0.27041015 0.18611121 0.07154365 0.14745095 0.18224478 -0.23725842

conv1.bias f4 [6]
00000000: 584e 2cbf 8f90 3bbf 16da e0be 2e01 1bbf
00000010: 2767 d9be 2bf4 88bf
-0.67307043 -0.73267454 -0.43916386 -0.60548675 -0.42461511 -1.0699514

conv2.weight f4 [16, 6, 5, 5]
00000000: 9425 5ebd 6fa7 c0bd e668 263d e908 bd3c
00000010: 0dec c5bd fec0 febb 31e6 373b f0de bfbd
00000020: 5707 d4bd e17a 1b3d 0682 063c eb77 2d3d
00000030: 0e98 623d 3586 89bc 1205 d53c 0478 21bd
00000040: 082a 85bc cd8e a1bd 31af 473c e43c 7d3d
00000050: 5364 17bd dd2c 98bd b77f 8fbd 40df 963d
00000060: a441 be3c 18bf 9a3c ce2a a7bd 1379 edbc
00000070: 8d01 24bd b382 e2ba 8a87 8dba 832f 98bd
00000080: 7408 39bd afe2 763d 42fc dc3a b8e2 663d
00000090: e30b 993b 3afd 93bd b77d 943c bf38 1cbd
000000a0: f72d 74bc c812 d7bc e669 473d 3a39 7fbd
000000b0: 742e dc3a ef66 af3c 642f 61bc 347d 953b
000000c0: 09b1 02bb 7af9 20bd 4760 dfbd f750 0abe
000000d0: 7880 c5bd 4c32 e4bc c666 12be 7521 70bc
000000e0: 937a 3dbd 7dfa 93bb 3efa 13bd bdde 7cbd
000000f0: 6049 c7bc b12f 83bd eb87 ccbd aa72 01be
00000100: fc13 f5bd 38ed 35bd ce4e b7bd 715e c3bd
00000110: 4043 70bd 3a20 86bc 3e5f 0ebe dc8f 1cbe
00000120: 0a2e 29be 3141 00be e069 ebbd eb11 9d3c
00000130: f935 46bd 3245 46bc 4b51 c2bd d60f 4abb
00000140: b916 e4bd ef14 21bd 4a86 b9bc 1a92 1e3d
00000150: c05f 33bd 6901 98bd f641 8e39 7ff7 41bc
00000160: 9b6e 8d3d b78b 083d 4bf0 163d bc48 2d3d
00000170: c6cf 153c 55fd 1cbd a0ce 273d d2fd 0cbc
00000180: 643d 6cbc 822c b33b 398e b3bc 09ca 9b3d
00000190: 37b2 9dbd df25 b5bc 66bd e8bd b850 3bbc
000001a0: f907 d4bd 5e17 8bbc 4864 56bd ccc3 60bb
000001b0: 06b5 96bd 69eb 9ebd 757c e9bc 5c4c acbd
000001c0: fdb6 093d a6c2 243d 9e59 63bd e077 273d
000001d0: 32cb fabc 1f27 6d3d 6e60 a8bc a938 0a3d
000001e0: 9277 d0b9 c479 523d 2749 bbbd 7dd3 51bd
000001f0: a29b 02bd 24f0 90bd 85c4 c0bd 3667 3e3c
00000200: bf1c afbd dcec 56bd 546d 963d ceac 9e3c
00000210: ff90 c53c b8fd ca3c 360f 583d 4caf 663d
00000220: a83c 7fbd 6a70 ccbc 6617 26bd aa60 88bd
00000230: 0efb e4bd 6b06 3aba f68d b73b f0e6 a83c
00000240: 393e e3bd e17a 86bd c4cf 9fbd 280e b4bd
00000250: e1b2 c3bd 1020 2a3c 23a8 29bd 89df 90bc
00000260: 622d 533c 41c3 3dbb 069d afbd 954c 743c
00000270: 740a bfbd 7158 abbc b0d8 ad3c e4e4 d73c
00000280: 69e2 7a3d bcbd 3a3d 8fe7 e83c 5cab 11bd
00000290: 1ef2 8fba e6fe 8cbd cae9 6dbd b8d5 9f3c
000002a0: efe7 6abd 54b1 1c3d e142 63bd adfc 92bd
000002b0: 2876 2c3d 29e0 26bd a94b e13c 74b8 c73d
000002c0: 9fb0 3fbd 28ff 54bd 766a 7bbd 8322 fb3c
000002d0: 0648 2fbd 0c5a 52bd e92c 7fbd 4179 06bc
000002e0: 1ac6 8f3d e62f f83c 58e8 af3d f894 993d
000002f0: c94c 853b b60d 483d 36e7 6c3d 9d0c 49bd
00000300: ce7d 063d 95af 8d3c ddc8 b9bc 30fe f73c
00000310: e90d 86bd b50e 1fbc 6614 60bd daf8 4b3d
00000320: 8b72 f1bd c342 1fbe c6c4 c6bd 1e64 8abc
00000330: 9f0b 0bbe 0e02 cabc 061d 52bd 7ec5 88bd
00000340: 9851 bebd 4060 1ebe 8e95 94bc fcbc 88bd
00000350: 41f3 bcbc c21b 90bd 73e8 ebbd 6b38 dfbd
00000360: cea7 d2bd f740 eebd 26b7 93bd f6b2 b7bd
00000370: 3474 d3bd fd7e bdbd 45e4 8bbd eb67 bebd
00000380: 13b4 1fbd b235 023d 4433 643d d284 b3bd
00000390: f2ea 093d 6e64 2d3d 2aca 803d ea41 553c
000003a0: a4f9 543d 6b14 7abd a292 a4bd 877f 703c
000003b0: 9371 d0bc f916 7f3d 81da aabd 0e3b 2bbd
000003c0: b96f 14bd fc5a a3bd 053e 0b3c c2a6 c53a
000003d0: 18f8 123d 013e 99bb c69c 29bd 64b4 b6bc
000003e0: 6965 3dbd fe63 b3bd 95d0 b13c 1ccf 3bbc
000003f0: 1c2d 92bd ce43 a4bd 64ee 043d a639 04bd
-0.054235056 -0.094069354 0.040627383 0.023075538 -0.09664164 -0.0077744713 0.0028060789 -0.09368694
-0.103529625 0.037958983 0.008209711 0.04235069 0.055320792 -0.016787628 0.026003394 -0.039421096
-0.016255394 -0.07888565 0.012187765 0.061825648 -0.03696091 -0.07430432 -0.070067815 0.073668
0.02322466 0.018889949 -0.08162461 -0.028988397 -0.04004054 -0.0017281383 -0.001079784 -0.07430937
-0.045174077 0.060274776 0.0016859847 0.05636856 0.0046706065 -0.072260335 0.018126352 -0.038140055
-0.014903537 -0.026254073 0.048684977 -0.062310435 0.0016798512 0.021411387 -0.013744209 0.0045620445
-0.0019941947 -0.03930042 -0.10907035 -0.13507448 -0.09643644 -0.027856015 -0.14297017 -0.014656414
-0.046259474 -0.0045159445 -0.03612732 -0.061735857 -0.02432698 -0.06405581 -0.09986862 -0.12641397
-0.11966702 -0.044415683 -0.08950578 -0.09539498 -0.058657885 -0.016372789 -0.1390352 -0.15289253
-0.16521469 -0.12524869 -0.114948034 0.019173583 -0.048391316 -0.012101458 -0.09488162 -0.0030832193
-0.111371465 -0.039326604 -0.022647042 0.038713552 -0.043792486 -0.07422144 0.00027133495 -0.011838793
0.06905862 0.033336367 0.036850255 0.042305693 0.009143775 -0.038327534 0.040968537 -0.008605437
-0.014418934 0.005467952 -0.021918403 0.076068945 -0.077000074 -0.022112785 -0.1136425 -0.011432819
-0.10353083 -0.016978916 -0.05234173 -0.0034296392 -0.07358746 -0.07759745 -0.028501729 -0.08413002
0.033621777 0.040224694 -0.055505387 0.040885806 -0.03061447 0.057898637 -0.020553794 0.03374544
-0.00039761938 0.051385656 -0.09144812 -0.05122708 -0.031886704 -0.07077053 -0.09412483 0.011621287
-0.08550405 -0.05247198 0.073450714 0.01936951 0.024116991 0.024779186 0.05274888 0.05631952
-0.062313706 -0.024955947 -0.04054966 -0.06659062 -0.111806974 -0.0007096293 0.00560164 0.020617932
-0.110958524 -0.06566406 -0.078033 -0.087917626 -0.09555603 0.010383621 -0.041420113 -0.017684715
0.012889238 -0.0028955492 -0.08574872 0.014910837 -0.09328166 -0.020916196 0.021221489 0.02635426
0.061251078 0.0455911 0.028430728 -0.03556381 -0.0010982191 -0.068845555 -0.058084287 0.019511089
-0.057350095 0.03825505 -0.055483703 -0.071771 0.04210487 -0.04074112 0.027501898 0.097519785
-0.0467993 -0.05200115 -0.061380826 0.030656105 -0.042793296 -0.051355407 -0.06229869 -0.00820762
0.07020207 0.030296277 0.08589238 0.07499117 0.0040679914 0.0488412 0.057837687 -0.049084295
0.03283482 0.017295638 -0.022678787 0.030272573 -0.06545622 -0.009708096 -0.054706953 0.04979787
-0.117894255 -0.15552811 -0.097055 -0.016893443 -0.13578652 -0.024659183 -0.05129721 -0.06678294
-0.092929065 -0.15466404 -0.01813772 -0.06676671 -0.023065211 -0.070365444 -0.115189455 -0.10899433
-0.102859125 -0.11633485 -0.07212667 -0.08969681 -0.10324898 -0.09252737 -0.06830648 -0.092971645
-0.03899009 0.03178949 0.055712953 -0.08765568 0.033671327 0.042332105 0.0628856 0.013016203
0.05199589 -0.06105463 -0.080357805 0.014678842 -0.025444781 0.062277768 -0.083424576 -0.041804366
-0.03623936 -0.07976338 0.008498673 0.0015079605 0.035881132 -0.004676581 -0.041409276 -0.022302814
-0.04623929 -0.08759306 0.021705905 -0.011462953 -0.0713751 -0.08020745 0.03245391 -0.03228154

conv2.bias f4 [16]
00000000: 5678 ddbc 85ed 84bd 9ba5 52bd 321d 9d3e
00000010: a1dc 6bbd 1786 48bb ca7a 03be 324d 9dbd
00000020: 5069 333d de40 29bd 6ab4 4e3d fc74 c1bd
00000030: fe40 86bd 8119 4bbd 6517 0fbe 275a a8bd
-0.02703492 -0.06490616 -0.051427465 0.30686337 -0.057583455 -0.0030597502 -0.12839809 -0.076807395
0.043801606 -0.041321628 0.050465025 -0.09446141 -0.06555365 -0.04958487 -0.13973768 -0.0822032

fc1.weight f4 [120, 400]
00000000: 184c ddbc b332 d3bc fdd8 31bd c388 3c3d
00000010: 561d 08bd 0142 26bd b80e ff3b 1ab3 473d
00000020: feb8 12bc f57f 73bc 7076 f4bc dddb 0fbd
00000030: 94a2 083c 5c9c 643c b6b8 31bd 5c78 91bc
00000040: a281 45bb cece c93a 3ae3 d33c 3ac3 cebc
00000050: 6e25 08bd bff3 993c 536e 1b3d b62a 53bc
00000060: 30d6 1ebd 5873 343d 88ef 3abd 838c 143d
00000070: cafd 983c 4d46 853c 9dcc 4abc 4953 d03c
00000080: a5ca dc3c b92f 07bc dc41 c9bb 8832 8939
00000090: 31ba 1ebd 2ea0 423d 7c3b 363d 8b5a aa3c
000000a0: 2087 1bbd 0d2c 02bd 6385 d33c 08c7 b23c
000000b0: f400 86bc 7dab 85bb 61e0 00bc 1d40 06bd
000000c0: 4506 203c c32c 31bd 4f83 07bd 75a3 41bd
000000d0: 930b 1a3d 1268 dbbc 2162 5f3c 16a3 c6bc
000000e0: bbe7 e13c b060 2ebd 120f 343c 5d5d e1bc
000000f0: 0bfa 26bd 4013 38bd b17f bcbc f286 40bd
00000100: b7c9 0c3d d027 12bd b5f2 19bd efb3 643d
00000110: 10c4 163c bfcd 84bb dfae 68bc 5618 35bd
00000120: e5f3 113d 72cb df3c ba48 563b 89b1 28bd
00000130: cd9f f1bd 7ae7 efbd 9f44 cebd 0784 8fbc
00000140: 7707 573d e625 86bb a458 e3bc 37f9 cdbc
00000150: 56a7 103d e094 8a3c 83e8 fcbc 9c7c ebbc
00000160: c4d7 c33d 0fc9 913d 7d27 6a3d 93b1 013d
00000170: 802c c93a 7611 68bd 7b21 cfbd 8ab0 07be
00000180: e329 c8bd 6b2f ddbc f2d2 17bd 687a ffbd
00000190: fb78 0cbc de46 d53c 3ede 5f3c 6b2e d33c
000001a0: 50eb 3ebc 0952 003d c5f5 cf3c f8b1 393d
000001b0: fc47 09ba 70c1 833c a923 403d 8145 44bd
000001c0: 1076 22bd ae83 83bc b7cd f6bb b7fd 823c
000001d0: d76d 3dbd 4e22 0ebd cb1b e7bb 88c7 173d
000001e0: c8cc c3bc 22e6 fdbc c198 e0bc 6fae 6cbc
000001f0: 5687 7b3c 6a49 0f3d 5502 04bd 1bd4 1c3d
00000200: 5a01 4b3c 2e56 0ebc 2f7f 613c 4d5b 1fbd
00000210: b08e 42bd 4d36 c83c 4dc3 0c3c 1a82 2fbc
00000220: 6efd ebbc 205d 053d ac97 f2bc 9ef6 103d
00000230: ce48 33bd 4ad9 9c3c eaa7 01bd 2c7b 46bd
00000240: 2d57 ba3c fce3 07bd 2c82 c93b 64d4 80bc
00000250: 5968 333d 47c6 dbbc 6e2b f5bb 1a54 adbc
00000260: 4655 e23a c400 973a 359e ef3c 7bff cebc
00000270: e5f8 aa3c 02e6 51bd 6277 da3a 78ce 283d
00000280: 2afe 4d3c cf50 913c b10a e2bc 5b54 10bd
00000290: 48e2 8f3c 6b2d efbc a26e 5a3d a848 123d
000002a0: 839d dd3a 99ea b4bc a93a b33c c9ad 1ebd
000002b0: 79bb a0bb 0f50 7b3a 331a 5b3c 1301 07bd
000002c0: be3c 22bd bbfe cbbb 9295 f1bc 11cc e4bc
000002d0: c2ba dd3b 3b76 fd3c 3c05 28bc 2a61 a6bc
000002e0: 747b 3dbd f946 ffbc f18a 29bd 277b bdbb
000002f0: fc22 6fbc 7dd3 1dbd 253a a5bc 1c8f ed3c
00000300: b441 373d 474b 1bbd 332b fbbc 47d0 5c3c
00000310: 41dd 95b9 9be9 f0bc 2a2c fdbb 2224 3dbd
00000320: a6d9 eabc 9c95 133c e049 33bd 92a5 22bd
00000330: be75 00bd 358f 2dbd af7c 36bc b82d 823c
00000340: 5e4b 983c 2923 4ebc b8c8 a93c 0f4f 0f3c
00000350: d927 9a3c 751e c0bc e742 84bc 1a42 193c
00000360: 825a 2fbd d269 27bd 9d96 f5bc 948b a3bc
00000370: 1a77 c8bc 744d d8bc d1fe 533d 6821 b0bc
00000380: f689 05bd 8b82 883c 7e4a 1ebd 401c 12bd
00000390: 7a44 06bd 5506 bf3b 1fb4 f639 ad93 34bd
000003a0: e7ab b7bb e155 373d 7e0d 103d cb1a 08bd
000003b0: a3c2 373d d74e f93c bbcf 8abb fe8b 4fbd
000003c0: 84f4 103d 433b 2abd e544 c5bc 3d31 e03c
000003d0: 1836 343b fca5 9b3c 42e0 363d 0703 3a3c
000003e0: 961a f0bc 4ca6 1c3d 8273 2ebd 016d 34bd
000003f0: 230f 963a 909b e93c a1e7 073c f1be 3e3d
-0.027013823 -0.025781011 -0.043419827 0.046028864 -0.033231102 -0.04059029 0.007783737 0.04875479
-0.008955238 -0.01486205 -0.029841632 -0.035121787 0.008339543 0.013953295 -0.043389045 -0.017757587
-0.0030137082 0.0015396716 0.025865186 -0.025239576 -0.03323882 0.018792985 0.03794701 -0.012888601
-0.038778484 0.044055313 -0.04563859 0.036266815 0.018675704 0.016268874 -0.012377885 0.025430338
0.026952097 -0.008251124 -0.0061418843 0.00026168325 -0.038751785 0.04751604 0.044490322 0.020795127
-0.037970662 -0.03178029 0.02582044 0.021823421 -0.016357876 -0.004079281 -0.007865996 -0.032775987
0.00976712 -0.04325558 -0.03308421 -0.047275025 0.037608694 -0.026783023 0.013634236 -0.024247687
0.027576318 -0.042572677 0.010989921 -0.02751034 -0.040765803 -0.044940233 -0.023010107 -0.047003694
0.034372058 -0.0356825 -0.03758498 0.05583566 0.009202018 -0.004052847 -0.014201849 -0.04421266
0.035632987 0.02731869 0.0032697157 -0.041184936 -0.11798058 -0.117140725 -0.10071682 -0.01751901
0.052497353 -0.0040938733 -0.027752228 -0.025143249 0.035315834 0.016916692 -0.030872589 -0.028745942
0.095626384 0.07118427 0.057166565 0.03166349 0.0015348345 -0.056657277 -0.10113808 -0.13250938
-0.09773614 -0.02700015 -0.037066408 -0.12474519 -0.008573766 0.026034769 0.0136638265 0.02577897
-0.011652783 0.031328235 0.025385747 0.04533574 -0.0005236862 0.01608345 0.04690901 -0.047917847
-0.039663374 -0.016054 -0.0075318473 0.015990121 -0.04624733 -0.034700684 -0.0070528737 0.037055522
-0.023901358 -0.030993525 -0.027416589 -0.014445885 0.015352091 0.034982122 -0.032228786 0.038288217
0.012390459 -0.008687539 0.013763233 -0.03890543 -0.04749936 0.024439955 0.008591485 -0.010712171
-0.028807368 0.032559514 -0.029613338 0.035391442 -0.043770604 0.01914658 -0.031654276 -0.04845731
0.022746647 -0.033176407 0.006149551 -0.015726276 0.043800686 -0.026827944 -0.007481984 -0.021158267
0.0017267845 0.0011520614 0.029250244 -0.025268307 0.020870635 -0.051244743 0.0016667659 0.04121253
0.0125728045 0.017738728 -0.027592989 -0.035236698 0.017563954 -0.029196462 0.053328164 0.03571382
0.0016907904 -0.022084521 0.021878557 -0.038739953 -0.004905161 0.000958682 0.013372946 -0.03296001
-0.03960871 -0.0062254346 -0.029490266 -0.027929338 0.006766648 0.030940166 -0.010255154 -0.020310003
-0.046260312 -0.031161772 -0.04139227 -0.005782503 -0.014595743 -0.03853177 -0.020169327 0.028998904
0.044740394 -0.037913587 -0.030660247 0.013477392 -0.00028584342 -0.029408267 -0.007726212 -0.046177037
-0.028668236 0.009007838 -0.043771625 -0.03970868 -0.031362288 -0.0423729 -0.011138125 0.015890941
0.018590625 -0.012581625 0.020725593 0.008746876 0.018817829 -0.023452023 -0.016145183 0.009354139
-0.042810924 -0.040872402 -0.029979045 -0.019964017 -0.024470855 -0.02640412 0.051756684 -0.021500304
-0.032602273 0.01666381 -0.03864526 -0.035671473 -0.032780148 0.0058296123 0.00047054977 -0.044086147
-0.005605209 0.044759635 0.035169117 -0.033228677 0.044863354 0.030433102 -0.004236189 -0.050670616
0.03538944 -0.041560423 -0.024080703 0.027367229 0.0027498063 0.019000046 0.044647463 0.011353261
-0.029309552 0.03824453 -0.042590626 -0.044049267 0.0011448603 0.02851656 0.008294971 0.046568815

fc1.bias f4 [120]
00000000: 3531 cabc 3e35 53bd 183b 04bd 449f 173d
00000010: 801e 38bd 6ed3 43be bf85 263e f03e 8ebd
00000020: 693e 45bd 7b7c 29bd 2c87 913c c98c 4d3d
00000030: e6ae ebbc b661 f7bc 5c45 c23a 1d35 babd
00000040: 54f4 84bd 3cd1 84bd 0ef1 ad3e 47a5 7ebc
00000050: a5bd 663e cf0a 63bd 1de8 65bd d8ea a5bd
00000060: 400e 6f3e cee0 4abd 44fb bfbc 3284 913e
00000070: cb26 2ebd 2734 0fbd 2e0d 04be ce63 2dbc
00000080: 2964 49bd ebd8 4dbd 5446 d43e ca9a 45bd
00000090: 4aa6 7b3d 6cec 59b9 9810 75bc be43 febc
000000a0: 381f 3bb7 216f b4bc a304 993d 7b19 00bd
000000b0: decf 00bc 728b 32ba 1622 a7bc 0e98 46bd
000000c0: 39b5 83bd c539 a3bc 0006 bf3b 9c0a c63d
000000d0: ae01 31bd 8019 05bd 4e5b 55bd 5850 e2bc
000000e0: ab5a 893e b042 22bd f417 6ebd d62a fa3b
000000f0: 4c61 26bc 4b6b ee3d 1741 09bc 62f1 633e
00000100: 0548 71bd 80ad 5fbd ff5e 41bd fa8c 5cbc
00000110: 3bbf bc3e f638 0fbc 2ea3 37bd 4aae 313e
00000120: 5f8c 1fbd 6e45 81bd 2ac9 e8bc 216d c43e
00000130: d86c 613d fce4 9cbd bd12 833c 3876 26bd
00000140: 2420 08bb d415 2bbc e957 63bd 218c 5bbd
00000150: cc9e 7dbd 791e 9cbd a386 5f3e e1f4 c63e
00000160: 6583 98bc a36b edbc 6d8c 6dbd 3460 7bbd
00000170: eabb a4ba 129f a1bc b722 01bd 2491 94bd
00000180: 8e01 96bc 3f8c b5bc 8be9 c9bb 44d2 0d3e
00000190: 7074 35bd e341 f5bc 8408 d9bc 55e5 a8bc
000001a0: bd9a 423d 2978 013e 5e65 9fbd 8f04 e2bd
000001b0: bc97 d53d 874d a33e 7790 bbbd bd3d 41bc
000001c0: a51b 223e 775d 59bd 29e5 61bc 95ba 47bd
000001d0: a649 dcbc 2ffe 5cbd 2ea1 0abd 98a9 75bd
-0.024681667 -0.051564448 -0.03228292 0.037017122 -0.044950962 -0.19123623 0.16261958 -0.06945598
-0.048155222 -0.04137848 0.01776465 0.05018309 -0.028769922 -0.03019796 0.0014821696 -0.09092162
-0.064919144 -0.06485221 0.33972973 -0.015542335 0.22533281 -0.05543023 -0.056129564 -0.081014335
0.2334528 -0.049530797 -0.023435242 0.2842117 -0.042517465 -0.034961846 -0.12895653 -0.010582877
-0.049167786 -0.050255697 0.41459906 -0.04824332 0.061437882 -0.00020782807 -0.01495757 -0.031038161
-1.1153337e-05 -0.022025647 0.074715875 -0.0312743 -0.007862059 -0.000681094 -0.020401996 -0.048484854
-0.0643105 -0.019925008 0.0058295727 0.09669992 -0.043214492 -0.03249502 -0.052089028 -0.027626202
0.26826987 -0.03961438 -0.058128312 0.007634501 -0.010155033 0.11641558 -0.008377335 0.22260049
-0.058906574 -0.054608822 -0.047209736 -0.013461346 0.36864647 -0.008741608 -0.044833355 0.17351642
-0.038952228 -0.06312071 -0.028416235 0.3836451 0.055035442 -0.07660863 0.016000146 -0.040640086
-0.002077111 -0.010442216 -0.05550376 -0.053600434 -0.06191902 -0.07623 0.21828704 0.38858703
-0.018617341 -0.02898199 -0.05799525 -0.061371043 -0.001256821 -0.019729171 -0.031527247 -0.07254246
-0.018311288 -0.022161601 -0.0061618737 0.13849741 -0.044300497 -0.029938644 -0.026493318 -0.020617167
0.04751085 0.12643494 -0.07783006 -0.11036026 0.10429332 0.31895086 -0.09158414 -0.011794505
0.15830858 -0.05306765 -0.013787546 -0.048761923 -0.026890587 -0.053953346 -0.03384512 -0.05997619

fc2.weight f4 [84, 120]
00000000: 7deb a9bd 4794 b9bc 15a6 dcbc e65b f93c
00000010: 74c8 9b3d a626 f9bd c4f4 9dbd 280e a9bc
00000020: 580f 88bd 70e2 a5bc 5af9 013d 8d9b 47bd
00000030: 3e3f fdbc 6e6e 813d 8490 8d3d 9892 e23c
00000040: 1870 673d e0bc d23c e1be fb3b c667 b33c
00000050: 2071 c7bd 63f3 4dbd 5eb2 923d b043 853d
00000060: 6698 78bd 33fa a63d 518c 6ebd 7dcc 9dbd
00000070: 624e 09bc cdbb 053d 4777 3c3d 5603 31bd
00000080: fa9e 353d b9b4 46bc 554f a03d 3737 13bc
00000090: 4675 833d 5f4f 8c3d 0611 303d 3cd2 41bd
000000a0: 949a 2f3d 61a6 223d 5c59 f9ba e8db 653d
000000b0: faf8 543d 30b1 423d 55df 693d 7c8d 613d
000000c0: 0d7a 34bd 7f8e 19bd 2a5d 0dbd e17a 223d
000000d0: 4d38 a3bd ca89 7abd 959d 593d 446d a2bc
000000e0: b0f6 f7bc 9b9a afbd ea98 00bb 0ae9 873b
000000f0: f91c 3dbc 0a4c 62bd 9fa5 013a 601c 393d
00000100: 3722 acbd 502a bebd 6dbb 91bd 7e46 ae3c
00000110: e9c8 05bd 0927 7bbd 2328 98bc d3d5 6fbc
00000120: fc28 5ebd 3608 e63c 164d 7fbd b4e5 61bc
00000130: f362 4d3c 4fea 96bd 647a 42bd 743b acbd
00000140: 87d9 803b 1dce 0bbd 9f15 803d 57d6 15bd
00000150: cc33 35bd 9152 e7bc 3fec b0bd 52f9 953d
00000160: 13a7 9cbd da79 87bd 070e c6bd c2b2 463d
00000170: f0b5 e4bc 2c9e 1bbc b66f 883d d11d abbd
00000180: fdd5 3cbc 8a7b 61bb cc3f abbd ae2a 3cbd
00000190: f323 213d 1013 a5bd 36c5 033d 4658 0a3c
000001a0: f6ca 01bd 403b 00bc 7a73 a0bc 9aa8 bcbd
000001b0: 04b5 98bd 5e32 143d 15fd bfbd 6e61 4a3d
000001c0: d688 06bd 6659 073d f018 5cbb c934 5b3c
000001d0: 6f35 5f3d c33f 183d 7282 9d3c 9426 b9bc
000001e0: 7dd6 1f3d 2bd3 293d a7c8 4e3d 50d3 b53a
000001f0: 3007 5f3d 6598 90bd fec3 acbd 761e 58bc
00000200: 95be 713d 113a 12bd c1e6 973b 271c a13d
00000210: 39a3 97bd c4c1 9d3d 4998 883d 26d3 2d3c
00000220: ebcd 8fbb 4367 b0bd 4ee2 8ebd 4c8e cebc
00000230: 6fd7 54bd c4ac 5e3d 4833 1a3b 9b8b 39bc
00000240: 89a9 66bb fc3f b63c ca4e a2bd bd3c 723d
00000250: 2301 7fbd acc4 bcbd b93c 4dbd 1855 0dbd
00000260: 69b8 a6bd ad83 ae3d 7483 91bd c079 b8bc
00000270: 535a fd3b f4e3 7dbd 3d20 52bd fdd1 20bb
00000280: c269 94bd e056 843d 2046 8bb7 dce9 08bd
00000290: 8be6 11bd 32b7 04bd 057b ad3c e8c6 80bd
000002a0: eaa1 5a3d 5f3d 27bc a99a 60bd 5281 8abd
000002b0: 30b2 13bd d1e7 5bbc 23e8 5e3d ac04 26bd
000002c0: aa7d 153d 6388 89bd 7f94 47bd d255 bdbc
000002d0: 96cc 1d3c 81fc dbbb c9d4 11bd 2836 81bd
000002e0: 9a30 5ebc 3b96 2b3d 4982 1cbd b74e 7d3d
000002f0: e30d 09bd 6a36 abbd 062c 12bc 65c2 673d
00000300: f734 eebc 01a9 89bc b78b 2e3c 641f c33c
00000310: 7a4a 623d 59fd 953d cb74 83bc 2c34 193c
00000320: 6a7d 65bd b88b 583d d9ad 8cbd a08e 343d
00000330: a841 dd3c 22fa 46bd 17fd afbd b6ad 6ebd
00000340: d410 9ebd 9c52 a2bd a66f c8bc 471f 96bc
00000350: 55a2 6f3d 1aa7 463d 379b 17bd c4f0 9bbd
00000360: 897e 72bd e898 0fbd aa99 a53d 90ee 3bbd
00000370: bf23 893d 52b0 a0bd 0e19 3d3d 452e a23d
00000380: f4c1 693d 41e9 073d 42d4 f2bd 2de4 9dbd
00000390: 427a 433d 11db 353c 95b6 033c 5947 1a3d
000003a0: e105 6abd cbb1 6a3d 157d 9c3d 6bcf 5ebc
000003b0: a373 adbd e6bf 893c 1eff 1a3d fafb 2a3d
000003c0: 2edb 663d 110e f83c 9cb7 93bd 7a2b c0bd
000003d0: e85b 60bd b6d0 e2bd 26dc 4bbd 6491 3dbd
000003e0: f1be c13d 29e7 c63c 7d6c f33c 79f8 97bd
000003f0: 684a 84bd 5aaa c93c 398b 6ebc a4a2 58bd
-0.08296869 -0.022653712 -0.026934663 0.030439328 0.07606593 -0.12165575 -0.07712701 -0.020636633
-0.066435516 -0.020249575 0.03173194 -0.04873233 -0.030913945 0.06319891 0.0691233 0.027657792
0.056503385 0.025724828 0.0076826666 0.021900069 -0.09738374 -0.05028094 0.07162927 0.06507051
-0.060692213 0.081531905 -0.058239285 -0.07705019 -0.008380504 0.032649804 0.04601219 -0.043216072
0.044341065 -0.012128049 0.078276314 -0.008985332 0.064188525 0.06851076 0.042984985 -0.047319636
0.042872027 0.039709453 -0.0019023824 0.056117922 0.051995255 0.04753226 0.05709775 0.05506657
-0.04406171 -0.03748941 -0.034512676 0.039667968 -0.07969723 -0.061166562 0.053128798 -0.019827493
-0.030268997 -0.085744105 -0.0019622394 0.0041476535 -0.011542552 -0.055248298 0.0004945639 0.045193076
-0.084049635 -0.09285414 -0.07115827 0.021273848 -0.032662306 -0.061316524 -0.018573826 -0.014638382
-0.054238304 0.028080087 -0.062329374 -0.013787676 0.012535798 -0.073689096 -0.047480002 -0.08409777
0.0039321813 -0.03413211 0.06254124 -0.036581364 -0.04423885 -0.028237613 -0.0863881 0.07322945
-0.076490544 -0.06615038 -0.09670644 0.04851032 -0.027918786 -0.00949816 0.06661932 -0.083552964
-0.011525628 -0.003440591 -0.08361778 -0.04593914 0.039340924 -0.080602765 0.032170497 0.008443898
-0.0316877 -0.007826626 -0.019586314 -0.09211846 -0.07456401 0.036180846 -0.093744434 0.049409322
-0.03284534 0.03304424 -0.00335842 0.013379284 0.054494318 0.037170183 0.01922724 -0.022601403
0.03902291 0.04146115 0.050484326 0.001387218 0.054450214 -0.07060317 -0.0843582 -0.013190856
0.059019644 -0.035699908 0.0046356623 0.07866698 -0.07404179 0.077029735 0.06669671 0.010609424
-0.004388561 -0.086134456 -0.06976758 -0.025214337 -0.051963266 0.05436398 0.00235291 -0.011324788
-0.0035196266 0.022247307 -0.07925184 0.059139956 -0.062256943 -0.092172 -0.050106738 -0.03450498
-0.08140642 0.08521209 -0.07105151 -0.022518992 0.0077317148 -0.06198497 -0.051300276 -0.0024539225
-0.07246734 0.064618826 -1.6602746e-05 -0.03342615 -0.035620254 -0.03240127 0.021176824 -0.06287938
0.05337707 -0.010207503 -0.054834995 -0.06762947 -0.036058605 -0.013421969 0.0544206 -0.0405318
0.036496796 -0.06715467 -0.0487256 -0.023112211 0.009631297 -0.0067134504 -0.03560332 -0.063091576
-0.013561392 0.041891318 -0.038210187 0.061842646 -0.03346051 -0.08359988 -0.008921629 0.056581873
-0.02907799 -0.01680422 0.010653428 0.02381868 0.055246808 0.07323713 -0.016046902 0.009350818
-0.056027807 0.05286762 -0.06869096 0.04408133 0.027008846 -0.04857839 -0.08593195 -0.058271132
-0.077180535 -0.07925913 -0.0244673 -0.018325461 0.05850442 0.048499204 -0.03701326 -0.07614282
-0.059202705 -0.035057932 0.0808595 -0.045881808 0.06696271 -0.078461304 0.046166472 0.079189815
0.057069734 0.033181433 -0.11856891 -0.07709537 0.047724016 0.011099593 0.008039136 0.0376657
-0.057134513 0.057298463 0.07641045 -0.013599257 -0.084693216 0.016815137 0.037840955 0.04174421
0.05636137 0.030280145 -0.07212755 -0.093832925 -0.05477515 -0.11074965 -0.049770497 -0.046281233
0.09460247 0.024280148 0.029714817 -0.07420439 -0.06459504 0.024617363 -0.01455956 -0.05288948

fc2.bias f4 [84]
00000000: d42e a6bd b372 95bd 53f6 1e3c 52d8 0a3e
00000010: 02c6 11bd aff3 35bd 41e9 9dbd 7e21 02be
00000020: 809e 57bd 61c5 bd3d f1d2 a1bc ba42 8e3d
00000030: 2059 1fbd c0d4 503e a3ce febd e740 4dbc
00000040: ce28 d1bd 4c4d 91bd 46ab 84bd aee0 153e
00000050: 2a4e 623d 2427 573e fccc d2bd 2e97 dd3d
00000060: ce6a 273d 961d c6bb 9c33 45bd 8229 b03e
00000070: 8c52 2c3d 8fbd d63c dc26 23bd 5d70 a6bd
00000080: 0e44 5ebd fccf efbd 3705 413c b574 aa3d
00000090: 9439 83bd d4c6 d33c b521 af3d ddfe a2bd
000000a0: 56dd 96bd 6c8a 053e d1fd 3dbd 9701 d8bd
000000b0: 651f 4eba f6bb bbbd 6b31 373c f8a7 1ebd
000000c0: c1b5 f5bc 6add e0bd b407 5c3e af72 abbd
000000d0: d6ae a2bd 4ce5 e73d 187a 493e d9d4 743e
000000e0: 207d 203d 4e7c a33c fc00 aabd 384e 373e
000000f0: 8c6a 8cbd 830f 8dbd 94bf a6bc 48ac 5dbd
00000100: 7119 f43e 924d 11be d64c ff3c 1700 303c
00000110: 4534 48bd 2087 bdbd ef4e 72bd 81c1 19be
00000120: 5851 03bd e613 e1bd 80ef 53bc 5027 3c39
00000130: 5b62 463e 9cf4 a0bd 94fa ec3d 62fb 19bd
00000140: 59ae 67bd 3967 18bd d453 473d 920d 95bd
-0.081144005 -0.07297268 0.009702283 0.13559082 -0.035589226 -0.044421848 -0.07710505 -0.12708089
-0.05264139 0.09266163 -0.019753905 0.06946321 -0.038903356 0.20393658 -0.124417566 -0.012527681
-0.10212861 -0.07094821 -0.0647798 0.1463649 0.055250324 0.21011025 -0.10293004 0.10819851
0.04087334 -0.0060460074 -0.04814492 0.34406668 0.04207091 0.026213435 -0.03983198 -0.081269
-0.05426412 -0.11709592 0.0117810285 0.08323041 -0.064074665 0.025851645 0.08551351 -0.079587676
-0.07366435 0.13041085 -0.046384636 -0.10547178 -0.00078629545 -0.0916671 0.011181216 -0.038734406
-0.029993894 -0.109797314 0.21487314 -0.083714835 -0.079435036 0.11323032 0.19675481 0.2390932
0.03918183 0.019956734 -0.08300969 0.17900932 -0.0685626 -0.06887724 -0.020355023 -0.05411938
0.4767566 -0.14189747 0.031164568 0.010742209 -0.048877973 -0.09254289 -0.05915731 -0.15015222
-0.032059997 -0.109901235 -0.012935519 0.00017943722 0.19373457 -0.078591555 0.115712315 -0.037593253
-0.056562755 -0.037207816 0.04866393 -0.07277979

fc3.weight f4 [10, 84]
00000000: 7622 48bd b178 633d 6825 fe3d 64ce 413e
00000010: 73da 3c3d 374e 9cbd 9c0a 24bd 0986 9ebd
00000020: 49e2 6abd a219 36be 9eff fc3d df1a 993d
00000030: f7ef 7c3d 1a63 53be b70f 7fbe aa11 133c
00000040: c0d7 8bbc 4051 3b3d 0344 f33c 2ccc c33d
00000050: 9254 143e c5ba 8f3e d200 063d 6ba5 523e
00000060: 5914 433c 5b26 2f3d 0a01 353d d5b1 acbe
00000070: a055 dc3d da70 5a3e 2151 06bd 1a91 f6bd
00000080: fd64 55bd c4a5 ae3c 163e 5cbd 1934 1d3e
00000090: 3f95 813b 5a21 8a3d 2eb4 5a3e fee8 8f3c
000000a0: b23e 373c 6c09 4c3e 0024 0c3d a3ab bebd
000000b0: 2e2a 93bd c019 873d ad7a 833d 2f0e d13d
000000c0: f259 8abd 1440 abbd 1f20 bebe f2df bdbd
000000d0: f33c c8bc a212 1b3e d781 85be 9900 2fbe
000000e0: 735c fa3d b88b a03d 2eef b9bc dc1a 813e
000000f0: 6ea8 03be e24f a53d e730 95bd 6cd9 663d
00000100: 8df4 15bf b338 f9bc a679 c63d 7cb9 653d
00000110: 8dc9 5abd d82d a33d ab79 a83c 929c 22bd
00000120: 9cd9 3d3d c09c d6bb 48ad c93d 70f4 51ba
00000130: 7d19 843e 19d6 313c 4251 0fbd 08db ed3a
00000140: 44a7 f63c 65a4 e63c dc33 1b3d b770 953c
00000150: 4cfc 64bb b23d 053d 46c5 353d 15dc 4b3e
00000160: 03b0 11bd d75f 573d 5789 ff3a 8dbc 0dbd
00000170: 4068 7b3c 9fbc fc3c 07eb 073d 0a97 10bd
00000180: 4adb d1bc bddc c0bd a1d4 41bb 08aa 8b3d
00000190: c166 16bd 46b1 483d 05e0 e0bd 8a36 583e
000001a0: 4eaf 8c3e 934c 803e df83 fc3c 72f9 013e
000001b0: 286a eabd 48f0 93bd f7b4 4cbb 4abc 7fbe
000001c0: cf1e 193e c4fa f93c 08bd 5c3d 4d1e 3c3c
000001d0: ceb5 fbbc 4f9c 92bd 9c69 16bc d3ca 2b3e
000001e0: 42f2 7e3d 7fb8 4bbd c280 ad3e a7d5 a13d
000001f0: 0d88 4d3c d45e 25bc f4e6 a03d 52be 393d
00000200: a4c4 983c eb23 833d 2022 123d fdb2 e43c
00000210: 684b a93c 266b 7bbd fc82 6fbe 1c62 aebc
00000220: 6e8a 623d b2e7 793c 4eab 4abe d901 27be
00000230: 00bb c13d 348b 57bd d9d5 cb3b ec5b 373d
00000240: f35e 8bbd aa04 043e e39d b1bc 63da 2cbd
00000250: e3b9 a4be c1e0 5b3d 7f07 ee3c 3682 df3d
00000260: 3d8d 563d 4a01 b93d 0a45 bf3c 1c83 0fbc
00000270: e06e 263d 22b5 973d f6fb a13c b428 473d
00000280: 457e 8b3e a1a5 c43c 5d43 dc3d f418 a23c
00000290: 9681 22bc 79b6 7a3d ea9d a4bd 997a 293d
000002a0: a133 5f3d 2ded 383d 4564 76bd ac7b 263d
000002b0: 3a95 5b3d 51c0 173c 9470 87bc 1835 8abd
000002c0: 106e 93bd 6282 4e3d 7769 853d 70ba 2e3d
000002d0: 8a6b 9e3c e888 f53d d631 8a3d 50bc 38bd
000002e0: c59c 60bd ec75 71bc e907 b03c a2b1 5ebd
000002f0: f176 c73b 76e0 263d 2d34 443d 1a24 bbbb
00000300: 6029 9c3d 3302 c33c 02c8 703b 12c0 8f3e
00000310: d5ca 32bd 41fd ef3c 07c1 c6bd 59a2 9ebc
00000320: 1a2a 7d3c e0d1 f4bc 1a93 aa3d d52e d6bd
00000330: 0a29 813d 9cd7 3bbd 7930 0abe 5c8d 4bbd
00000340: 4433 d7bb 53df 5c3b 8ab6 94bd 5385 9f3d
00000350: fd81 50bd ca48 23bc 1415 5d3a a227 ed3b
00000360: 3645 8e3c 28a2 5ebc 3a31 9d3d 836d 97bd
00000370: 4d53 79bd 6d2c ba3d b603 2d3e 9ada 3e3e
00000380: 7a62 6a3d 1dac 173d dce0 d6bd 5000 2f3b
00000390: dc70 193d 644b e7bd 1500 ae3c 84c8 8dbb
000003a0: 8593 ca3e d9ae 363d 3f6c d5bd 460a b0bd
000003b0: 83aa 153d 86af c13d cb7c 0abd a606 843d
000003c0: e0ad f4ba 8af3 b63b 5801 caba cc78 eebc
000003d0: 500b fe3c 1e4f 22bd c1ee 8b3c ef34 3cbd
000003e0: e030 373d 063e 2fbd 1e3f 32bd a821 acbd
000003f0: 3811 2dbd 2b09 9abd 5adb c8bd f349 65be
-0.04886099 0.055535022 0.124094784 0.18926388 0.046106767 -0.07632106 -0.04004918 -0.07740409
-0.05734471 -0.17783216 0.123534426 0.074758284 0.061752286 -0.20643273 -0.24908338 0.008976379
-0.017070651 0.045731783 0.029695516 0.09560427 0.14485386 0.2807218 0.032715626 0.20570914
0.011906707 0.042761188 0.044190444 -0.33729425 0.10758519 0.21332112 -0.032792214 -0.12039395
-0.052098263 0.021319278 -0.053770147 0.15351905 0.003954559 0.067446426 0.21357796 0.017567154
0.011184381 0.19925469 0.03421402 -0.09310081 -0.071857795 0.06596708 0.06419883 0.102077834
-0.06755437 -0.08361831 -0.3713388 -0.0927123 -0.024443125 0.15143827 -0.26075622 -0.17090072
0.122246645 0.07839149 -0.022697058 0.25215805 -0.1285722 0.08071877 -0.07284718 0.056359693
-0.5857628 -0.030422544 0.09691171 0.056085095 -0.05341487 0.079677284 0.020565828 -0.0397001
0.046350107 -0.006549448 0.09847504 -0.00080091413 0.25800696 0.0108542675 -0.034989603 0.0018146941
0.030109055 0.028154561 0.037891254 0.018242223 -0.003494042 0.03252954 0.044377588 0.19908173
-0.03556825 0.052581634 0.0019495887 -0.034603644 0.015344679 0.03085166 0.033183124 -0.035300292
-0.02561726 -0.094171025 -0.00295762 0.0681954 -0.036719088 0.048997186 -0.10980228 0.21114555
0.27477497 0.25058421 0.0308246 0.12692812 -0.11446029 -0.072235644 -0.0031235793 -0.2497417
0.14953159 0.030515082 0.05389121 0.011481834 -0.03072634 -0.0715872 -0.009180453 0.1677659
0.062242754 -0.049736496 0.33887297 0.07902079 0.012544644 -0.01009341 0.07856551 0.04534752
0.018648453 0.06403335 0.035677075 0.02791738 0.02066584 -0.06138148 -0.2338981 -0.021287017
0.055307798 0.015252994 -0.1979191 -0.16309299 0.094594955 -0.05262299 0.006220561 0.044765398
-0.068052195 0.12892404 -0.021681732 -0.042200457 -0.3217307 0.05368114 0.029056309 0.10913508
0.05238079 0.09033449 0.02334835 -0.008759286 0.040633082 0.07407595 0.019773465 0.048622802
0.27244774 0.02400476 0.10755036 0.01978729 -0.009918591 0.061209176 -0.08037932 0.041376684
0.054492597 0.045148063 -0.06015422 0.040645286 0.05360911 0.00926216 -0.016533174 -0.06748408
-0.07198727 0.05041731 0.065142564 0.04265827 0.019338388 0.119890034 0.06747787 -0.045101464
-0.054837007 -0.014737587 0.021488147 -0.054368623 0.006087177 0.040741406 0.04790132 -0.0057110908
0.07625079 0.02380476 0.0036740308 0.28076226 -0.043650467 0.029295566 -0.09704786 -0.019364523
0.015451932 -0.029885232 0.08328839 -0.10458151 0.06306656 -0.045859918 -0.13495053 -0.049695358
-0.0065673906 0.0033702448 -0.07261379 0.077891015 -0.050905216 -0.009966085 0.0008433622 0.0072373906
0.017366987 -0.013588466 0.07675405 -0.073939346 -0.060870457 0.09090505 0.16895947 0.18638077
0.05722282 0.037029374 -0.10492107 0.0026703067 0.037461147 -0.112936765 0.021240273 -0.004326882
0.39565673 0.04460034 -0.10421037 -0.085957095 0.036539566 0.094573066 -0.033810418 0.064465806
-0.0018667541 0.0055832313 -0.0015411777 -0.029110335 0.031011254 -0.039626233 0.01708162 -0.04594892
0.044724345 -0.04278376 -0.043517224 -0.08404857 -0.04225275 -0.0752128 -0.09807463 -0.2239149

fc3.bias f4 [10]
00000000: 29d7 3bbb 823b 9e3d 9b90 12be 3f93 423e
00000010: 3b1f 9ebe 17bf 0b3e 3e11 81be 1df9 0f3e
00000020: 98b6 cb3d 568d 533e
-0.002866218 0.07726194 -0.14312975 0.19001482 -0.30883202 0.13647114 -0.25208467 0.14059873
0.09946936 0.20659384
